_________________________________________________________________
Layer (type)                 Output Shape              Param #   
=================================================================
flatten_1 (Flatten)          (None, 99)                0         
_________________________________________________________________
dense_1 (Dense)              (None, 79)                7900      
_________________________________________________________________
dense_2 (Dense)              (None, 79)                6320      
_________________________________________________________________
dense_3 (Dense)              (None, 79)                6320      
_________________________________________________________________
dense_4 (Dense)              (None, 79)                6320      
_________________________________________________________________
dense_5 (Dense)              (None, 4)                 320       
=================================================================
Total params: 27,180
Trainable params: 27,180
Non-trainable params: 0
_________________________________________________________________
Model Summary:  None
Function info: fun= bbob_f001_i74_d02: a 2-dimensional single-objective problem (problem 8 of suite "b'bbob'" with name "BBOB suite problem f1 instance 74 in 2D") with dim = 2
…
